models/GNN_model4.pt (torch, 130896 bytes, 30 tensors)

answer_emb.weight f4 [10, 8]
0	0x3d078ff5	0.033096272
1	0xbfb65693	-1.424517
2	0xbf213c4d	-0.62982637
3	0x3f18ad55	0.59639484
4	0x3fb058ae	1.3777063
5	0x3e226a70	0.15860915
6	0xbea61789	-0.3243983
7	0xbfd0508a	-1.6274579
8	0xbddada40	-0.10686159
9	0x3fb6c98d	1.4280258
10	0xbf5658e4	-0.83729386
11	0xbe867b5b	-0.26265988
12	0x3df0abb7	0.11751502
13	0x3f109c15	0.5648816
14	0xbe48b328	-0.19599593
15	0xbf858326	-1.0430648
16	0x3fd8278e	1.6887071
17	0xc00c4970	-2.1919823
18	0x3e8660f0	0.26245832
19	0xbfa32ede	-1.2748678
20	0xbe90a261	-0.28248885
21	0x3f091803	0.53552264
22	0x3ed1678f	0.4089932
23	0x3f291497	0.6604704
24	0xbfa18941	-1.2620012
25	0x3f5d60c0	0.86475754
26	0x3f2bb5be	0.6707419
27	0xbf65ba8a	-0.8973776
28	0x3ef9d92a	0.48798496
29	0xbf1c074d	-0.6094864
30	0xbf14a07d	-0.58057386
31	0x3e26d095	0.16290505
32	0xbe1d807e	-0.15381047
33	0xbf8cbb14	-1.0994592
34	0x3f92916d	1.145063
35	0xbf8ad47e	-1.0846097
36	0xbfad1404	-1.3521733
37	0x3f88f482	1.0699618
38	0x3dc06113	0.093935154
39	0x3fb01f6a	1.3759587
40	0x3f21838c	0.6309135
41	0xbfb2ecaa	-1.3978474
42	0xbfb66175	-1.4248492
43	0x3eb63e85	0.35594574
44	0x3f9760cc	1.1826415
45	0xbf2ef54f	-0.6834306
46	0xbdff7ba8	-0.124747574
47	0x3fa51531	1.2897092
48	0x3f42bb37	0.7606692
49	0x3f934d4a	1.1507962
50	0xbf5a261b	-0.85214394
51	0x3ed07bce	0.40719455
52	0x3ddf98a8	0.10917789
53	0xbf2cbee9	-0.67478806
54	0xbe350671	-0.17678238
55	0x3f33cd01	0.70234686
56	0x3f508c20	0.81463814
57	0x3fa783a6	1.3087051
58	0xbe55556b	-0.20833366
59	0x3e619bb9	0.2203206
60	0xbf1ecb8c	-0.6202934
61	0xbf23f4ab	-0.6404521
62	0x3f8497eb	1.0358862
63	0xbe8a5015	-0.27014223
64	0x3e8329c8	0.25617814
65	0xbfbb4ac5	-1.4632193
66	0xbf2e736f	-0.6814489
67	0xbecb34d5	-0.39688745
68	0x3f599635	0.8499482
69	0x3f2850ec	0.65748477
70	0xbf3b03c0	-0.730526
71	0xbef1c3a4	-0.47219574
72	0x3fe6f830	1.8044491
73	0xbf8c37dd	-1.0954548
74	0x3f643a3c	0.8915136
75	0xbdab9a17	-0.08379
76	0x3f9112e5	1.1333891
77	0x3f9338d1	1.1501714
78	0xbd975f8c	-0.07391271
79	0xbe6f8164	-0.23389202

step_proj.weight f4 [32, 384]
0	0x3d37f50f	0.04491144
1	0xbd84559e	-0.06461643
2	0xbce6bf2e	-0.028167333
3	0xbcc47aaa	-0.023984272
4	0xbcdb2bb0	-0.02675423
5	0xbd72ccaf	-0.059277233
6	0xbd08917b	-0.033341866
7	0x3c1826c7	0.009286589
8	0xbce53213	-0.027977979
9	0x3d995dd2	0.07488598
10	0xbd26e190	-0.040742457
11	0x3c3cc9c5	0.011522715
12	0x3d29918c	0.04139857
13	0xbd191a37	-0.037378516
14	0xbd3a9ce3	-0.045559775
15	0xbb3aa5fb	-0.002848028
16	0xbc9cf57a	-0.019160021
17	0xbd6fd833	-0.058555793
18	0x3d12b0ce	0.035813145
19	0x3d0d4e85	0.03449871
20	0xbd08b403	-0.033374798
21	0xbc8b3e0f	-0.016997365
22	0x3be85c0a	0.00709105
23	0x3ce716f3	0.028209185
24	0x3c261195	0.010136028
25	0xbd30956a	-0.043111242
26	0x3cfad58e	0.030619409
27	0x3ce25865	0.02763004
28	0x3c50adec	0.012736779
29	0xbca6dedc	-0.02036994
30	0xbcac8ae0	-0.021062315
31	0xbc29148f	-0.010319843
32	0xbdaa7a1e	-0.08324073
33	0xbc8f6201	-0.017502787
34	0x3d53ff0d	0.051756907
35	0xbd298b24	-0.04139246
36	0xbd2a967d	-0.041647423
37	0x3c45b406	0.012066847
38	0xbd20b9f5	-0.039239842
39	0xbb0f2f45	-0.0021848243
40	0x3c113a33	0.008863973
41	0x3d176d0c	0.03696923
42	0x3d718f34	0.05897446
43	0xbc1f3ac7	-0.009718603
44	0x3b95509b	0.004556728
45	0xbc0b262d	-0.0084929885
46	0x3d2da58a	0.0423942
47	0xbd1954c3	-0.03743435
48	0x3b741444	0.0037243525
49	0xbd62ab83	-0.055339348
50	0x3d1ce183	0.038301002
51	0xbd39c9b8	-0.04535839
52	0xbd1c4abe	-0.038157217
53	0x3beb79ca	0.0071861492
54	0x3d14b447	0.03630474
55	0xbcc5d125	-0.02414758
56	0x3bbbfe4e	0.0057371026
57	0xbc5e3ea9	-0.013564744
58	0xbd16969d	-0.03676473
59	0x3c93f181	0.018059494
60	0x3ccde1e9	0.025132136
61	0x3d86e6da	0.06587
62	0x3d368476	0.04455992
63	0x3ca97cb9	0.020689355
64	0xbc3dac72	-0.011576759
65	0x3d6d8076	0.057983838
66	0x3cd66dee	0.026175465
67	0xbc0a7ab6	-0.008452108
68	0x3cb8c3d7	0.022554321
69	0x3d408b69	0.047007952
70	0xbd4aaf27	-0.049483445
71	0xbc061a50	-0.008184984
72	0x3c92ad81	0.017904999
73	0xbae12a93	-0.0017178826
74	0xbc8b67d1	-0.017017277
75	0x3d11a5c1	0.035558466
76	0x3b998d91	0.0046860655
77	0x3c25c9e6	0.010118937
78	0xbccbda4d	-0.024884367
79	0x3c9b1c54	0.018934406
80	0xbcbe3d0e	-0.023222473
81	0x3c31f767	0.010862208
82	0x3d3232c3	0.04350544
83	0xbcda793d	-0.026669139
84	0xbc1cf92e	-0.009580893
85	0x3ca169a7	0.0197037
86	0xbd63c14e	-0.05560427
87	0xbbc1ad08	-0.0059105195
88	0x3c1cf150	0.009579018
89	0xbc626413	-0.013817805
90	0x3d367388	0.044543773
91	0x3d182de4	0.03715314
92	0x3d8699eb	0.06572326
93	0xbd33cbe3	-0.043895613
94	0x3d14ea70	0.03635639
95	0x3bdcd3fc	0.0067391377
96	0xbd18d722	-0.03731454
97	0x3c7c9b3d	0.015417871
98	0xbd17fe04	-0.037107483
99	0xbb257b6f	-0.0025250574
100	0x3ce2493e	0.027622815
101	0x3d832a30	0.06404531
102	0xbd36eb0e	-0.04465776
103	0x3c999c14	0.018751182
104	0xbc9d5a58	-0.019208118
105	0xbb956efd	-0.00456035
106	0xbc0830cd	-0.008312416
107	0xbd05b169	-0.032639895
108	0xbd35e259	-0.044405315
109	0x3d58f65c	0.05296932
110	0x3baf499d	0.0053493516
111	0x3cff48db	0.03116267
112	0xbd19e2d9	-0.037569854
113	0xbd310461	-0.043217067
114	0xbccbe03e	-0.0248872
115	0xbd27ef77	-0.040999856
116	0x3c31be8a	0.010848651
117	0x3b954b91	0.0045561274
118	0x3cf4a5b9	0.029864179
119	0xbbeb84a5	-0.0071874433
120	0x3d320888	0.043465167
121	0xbcc3eb92	-0.02391604
122	0xbd5abd36	-0.0534031
123	0xbc3c2cb4	-0.011485267
124	0xbd22c20e	-0.039735846
125	0x3bc6dd95	0.006068895
126	0xbc39e046	-0.011344975
127	0x3cbc1c5f	0.022962747
128	0xbcc9058a	-0.024538774
129	0x3cef3e41	0.02920449
130	0x3d93f5a5	0.07224587
131	0x3d07bcf6	0.03313919
132	0x3d13a55d	0.036046375
133	0x3d12b78b	0.03581957
134	0xbd0c701b	-0.0342866
135	0xbd358fe3	-0.044326674
136	0x3c8be1a5	0.01707537
137	0xbd6a2851	-0.057167355
138	0xbbc8ad24	-0.0061241556
139	0x3d1a7ffe	0.03771972
140	0x3cdb44e4	0.026766248
141	0xbcef8785	-0.029239425
142	0xbc9d884b	-0.019230029
143	0xbd1e8fc2	-0.038711317
144	0xbce2ebf1	-0.027700396
145	0xbb304a98	-0.002689993
146	0xbcd1d287	-0.025613083
147	0x3b81478f	0.003945298
148	0x3d8a74d4	0.067605644
149	0xbc648d93	-0.01394977
150	0x3bfba567	0.0076796296
151	0xbca0ca5d	-0.019627744
152	0x3bb4907c	0.005510388
153	0x3d12f920	0.035882115
154	0xbb225c84	-0.0024774382
155	0x3cb61008	0.022224441
156	0x3baf9a32	0.0053589577
157	0x3a4f2226	0.0007901512
158	0x3d4ac6dd	0.049506057
159	0xbd30dd45	-0.04317977
160	0x3d7b8e75	0.061415154
161	0xbd20648f	-0.0391584
162	0x3d1e1cdf	0.038601752
163	0xbd488492	-0.048954554
164	0xbccdaa9f	-0.025105773
165	0x3cc3c7c5	0.023898968
166	0x3bae5e4e	0.0053213006
167	0x3d022b39	0.0317795
168	0x3d0470ba	0.032334067
169	0xbd2eb4cf	-0.0426529
170	0x3d1b3f3c	0.037902102
171	0x3caafe52	0.020873223
172	0x3d36eb07	0.044657733
173	0x3beb80b1	0.007186972
174	0xbd7bc2e0	-0.061465144
175	0x3b7744e5	0.0037730273
176	0x3be5e13a	0.0070153745
177	0x3c137f24	0.009002481
178	0xbcd63fef	-0.026153533
179	0xbd007ced	-0.03136914
180	0x3c449a5c	0.011999693
181	0x3d061fa5	0.032745022
182	0x3d47f998	0.048822016
183	0xbc455843	-0.012044969
184	0xbd1e9876	-0.038719617
185	0x3c2c3130	0.010509774
186	0xbc8c84da	-0.017153192
187	0x3d7083c4	0.05871941
188	0x3d5338cf	0.05156785
189	0x3cb430b6	0.021995883
190	0x3d292058	0.04129061
191	0x3ba36ec7	0.004987571
192	0x3d54051e	0.051762693
193	0xbc4c8bb1	-0.012484477
194	0x3d2451a4	0.04011692
195	0xbc1cc5c2	-0.0095686335
196	0xbbfbad68	-0.0076805837
197	0xbd7d5703	-0.06185056
198	0x3d55cdb9	0.052198146
199	0x3c4f0007	0.012634284
200	0x3d0cdcdb	0.03439031
201	0xbc847822	-0.016170565
202	0x3d6f067e	0.0583558
203	0x3d37a3bb	0.04483388
204	0xbc90159f	-0.017588435
205	0xbd3f8e5b	-0.04676662
206	0x3c890529	0.016726093
207	0x3d484a04	0.04889871
208	0xbbd55491	-0.0065103252
209	0x3d2afd5d	0.041745532
210	0x3ca330ca	0.019920725
211	0xbd11859e	-0.035527818
212	0x3d624f5c	0.055251464
213	0xbc7a9415	-0.015294095
214	0xbcb8628b	-0.022507926
215	0xbd857d2b	-0.065180145
216	0x3ce00d07	0.027349962
217	0xbd841357	-0.06449001
218	0xbb135877	-0.002248315
219	0x3cf69686	0.030101072
220	0x3d1851ae	0.03718727
221	0xbcbf0cd5	-0.023321548
222	0x3ccd6101	0.02507067
223	0xbc9e7e07	-0.019347204
224	0xbd1f0b2f	-0.038829025
225	0xbb4540f3	-0.0030098527
226	0xbcabd730	-0.020976633
227	0x3cda3f49	0.026641505
228	0xbd4b4688	-0.04962781
229	0xbd39dd8e	-0.045377307
230	0xbb1b67e9	-0.0023713058
231	0x3d56f6b9	0.052481387
232	0xbb87c2a1	-0.0041430746
233	0x3d650283	0.0559106
234	0xbb827925	-0.0039817267
235	0x3ce4ab7b	0.0279138
236	0x3c8e752b	0.017389854
237	0x3cdecd80	0.0271976
238	0xba98a4e0	-0.0011645816
239	0xbc828a6f	-0.01593515
240	0x3cf5e512	0.030016456
241	0x3d201d75	0.039090592
242	0xbbca89cb	-0.006180977
243	0xbd24b6a1	-0.04021323
244	0x3d2be804	0.041969314
245	0xbc9af702	-0.01891661
246	0xbd4474b4	-0.04796286
247	0x3ce04da5	0.027380774
248	0x3d1bd0b5	0.038040835
249	0x3c55f99f	0.013060003
250	0x3c781481	0.015141607
251	0x3ca0029a	0.01953249
252	0x3c9b8e8c	0.01898887
253	0xbcaf34fd	-0.021387571
254	0xbcfddbe0	-0.030988634
255	0xbba0e768	-0.0049103983

step_proj.bias f4 [32]
0	0x3c577e45	0.013152664
1	0x3d272651	0.040808026
2	0xbd2052e7	-0.03914156
3	0xbd5d25c6	-0.0539911
4	0x3dbd2148	0.092348635
5	0xbceb7de2	-0.028746549
6	0xb863fd62	-5.4357e-05
7	0x3ce8f861	0.028438749
8	0x3d146f4d	0.036238957
9	0x3dbb7ad4	0.09154287
10	0x3ba1d88f	0.004939146
11	0xbcbd92ef	-0.023141352
12	0x3d1e42ea	0.038638033
13	0x3aa3152c	0.0012442223
14	0xbcacfe3b	-0.02111732
15	0xbd45bf61	-0.048278216
16	0x3c17b5ef	0.009259685
17	0xbae631cc	-0.0017562448
18	0x3c3f9c86	0.011695033
19	0xbcc3352c	-0.023829065
20	0x3c605584	0.0136922635
21	0xbda27bb3	-0.0793375
22	0x3c71a6c6	0.014749235
23	0x3d35821f	0.044313546
24	0x3d1765f4	0.036962464
25	0xbc27c45b	-0.010239686
26	0xbd35ed28	-0.044415623
27	0x3d2d82fd	0.04236125
28	0x3c62ee79	0.013850802
29	0x3dd9f876	0.10643093
30	0x3d801678	0.062542856
31	0x3ba7d44e	0.0051217442

answer_proj.weight f4 [32, 8]
0	0x3df06dea	0.117397144
1	0xbe99ecb4	-0.30063403
2	0x3e05a9a3	0.13052993
3	0xbd84140e	-0.06449138
4	0xbe98dd08	-0.29856133
5	0x3e9c000a	0.3046878
6	0x3e693a3c	0.22776121
7	0xbe3fa1d6	-0.1871408
8	0x3e40aff2	0.18817118
9	0xbd757daf	-0.059934314
10	0x3eb6ecee	0.35727638
11	0x3d31700a	0.04331974
12	0x3d9de84f	0.07710325
13	0x3ec636b6	0.38713616
14	0x3c4be573	0.012444842
15	0x3e144120	0.14477968
16	0x3e862139	0.26197222
17	0x3e8558a4	0.2604419
18	0x3eb2fd13	0.34958705
19	0xbe989182	-0.29798514
20	0x3d98998d	0.074511625
21	0xbe49830e	-0.196789
22	0x3e72e943	0.23721795
23	0xbe97a3b4	-0.29617083
24	0xbd7ce41c	-0.06174098
25	0xbe6478e7	-0.22311746
26	0xbe299cae	-0.16563675
27	0xbd88adc1	-0.06673766
28	0xbd8af421	-0.06784845
29	0x3c3a669c	0.011377003
30	0x3ea13e40	0.31492805
31	0x3ec33a76	0.3813054
32	0x3eadca1e	0.33943266
33	0xbc98f701	-0.018672468
34	0xbdb535e4	-0.088481694
35	0x3ca31564	0.01990766
36	0x3ebc0fb6	0.36730736
37	0xbe9a06a4	-0.3008319
38	0xbcaf49fc	-0.021397583
39	0xbea72662	-0.3264647
40	0x3e8a4f59	0.27013662
41	0xbe8047d2	-0.25054795
42	0xbd11ccda	-0.035595752
43	0x3e8a79f5	0.2704617
44	0xbebbdd09	-0.36692074
45	0x3ea7cd6b	0.3277391
46	0xbd672641	-0.056432966
47	0x3e9511fe	0.2911529
48	0x3e5ba2c7	0.21448813
49	0xbe6b5aef	-0.22983907
50	0xbe1d5131	-0.15363003
51	0xbe8a21a9	-0.26978806
52	0x3dcf90db	0.10135051
53	0x3e9c269e	0.30498213
54	0x3e4d84d7	0.20070206
55	0x3eaa151b	0.33219227
56	0x3e59ec7e	0.21281621
57	0x3d17902b	0.037002724
58	0xbda969e5	-0.08272151
59	0xbd5bfe70	-0.053709447
60	0x3dae3800	0.08506775
61	0xbda2e9ef	-0.079547755
62	0x3e2056bd	0.15658088
63	0x3ebca565	0.36844936
64	0x3b0449d4	0.0020185607
65	0xbea2c084	-0.31787503
66	0xbe63f462	-0.22261193
67	0x3d3a6302	0.045504577
68	0xbddfae22	-0.10921885
69	0xbe190e3c	-0.14946836
70	0xbdfb803b	-0.122803174
71	0xbe7c29a7	-0.24625264
72	0x3e2141e6	0.15747795
73	0xbe14497e	-0.1448116
74	0x3e95707d	0.29187384
75	0x3e4ebf08	0.2019006
76	0x3d83e8ac	0.06440863
77	0xbe847b72	-0.2587543
78	0x3eb663fa	0.3562315
79	0x3e9abe83	0.30223474
80	0xbe3b5eab	-0.18297832
81	0x3e604d8b	0.2190458
82	0xbf010700	-0.50401306
83	0x3eae6702	0.34062964
84	0xbcd28254	-0.02569691
85	0x3d9f60f5	0.07782165
86	0x3d058ea5	0.03260674
87	0x3db432a2	0.0879872
88	0x3ef12ce1	0.47104552
89	0xbe4b8e52	-0.1987851
90	0x3d89ecae	0.06734596
91	0xbe204afb	-0.15653603
92	0xbc366979	-0.011133545
93	0x3c496a0a	0.012293348
94	0x3eb24015	0.34814516
95	0x3e9d9bd6	0.30782956
96	0xbda56802	-0.080764785
97	0xbd1ae367	-0.037814524
98	0x3d167c91	0.03673989
99	0x3e61173c	0.2198152
100	0xbd6d5355	-0.0579408
101	0xbdc19e5a	-0.09454031
102	0xbe0904dd	-0.13380761
103	0xbde1d956	-0.11027782
104	0x3d6deba2	0.058086045
105	0xbe89f720	-0.26946354
106	0xbcf4d7b2	-0.029888008
107	0xbe847b45	-0.25875297
108	0x3d920079	0.071289964
109	0xbe9ec2fb	-0.31008133
110	0xbd50ca21	-0.050974015
111	0x3dff13f7	0.1245498
112	0xbe9bbf43	-0.3041936
113	0x3ebc3da2	0.36765772
114	0xbdc6f6ca	-0.0971504
115	0x3c1fa607	0.009744174
116	0xbdab1632	-0.08353843
117	0x3ea867c0	0.32891655
118	0xbd8eda24	-0.06975201
119	0x3e6f71d0	0.2338326
120	0xbe355810	-0.17709374
121	0x3e9b8e65	0.30382076
122	0xbe557b93	-0.20847921
123	0xbe6fb04f	-0.234071
124	0xbe02ed0c	-0.12785739
125	0xbe8eaa54	-0.27864325
126	0xbe58901d	-0.21148725
127	0x3d45d9d7	0.04830345
128	0xbe68eb84	-0.22746092
129	0x3eb4126b	0.35170302
130	0x3e3c90e2	0.18414643
131	0x3e4d2ad6	0.20035872
132	0x3e8ec7ea	0.27886897
133	0xbd400d53	-0.046887707
134	0x3dcab17b	0.09897133
135	0xbe9ee809	-0.31036404
136	0xbe64a31b	-0.22327845
137	0xbdd3e9a9	-0.103473015
138	0x3ec5bb2d	0.38619366
139	0xbec74156	-0.38917035
140	0x3e2bfd6b	0.1679589
141	0xba2c7055	-0.0006578018
142	0xbdf7085a	-0.1206214
143	0x3ce71970	0.028210372
144	0xbe7112a4	-0.23542267
145	0xbe791b78	-0.24326885
146	0xbdaa339e	-0.083106264
147	0x39137e53	0.00014066072
148	0x3daebe92	0.08532442
149	0xbc045676	-0.0080772545
150	0xbe0e3ba7	-0.13889943
151	0x3e9d738c	0.30752218
152	0x3e5fa386	0.21839723
153	0x3eac386a	0.3363679
154	0xbb8734a5	-0.0041261488
155	0xbd05ff3a	-0.032714106
156	0xbe92eabe	-0.2869472
157	0xbebc97e0	-0.3683462
158	0xbec739ae	-0.38911194
159	0xbeacafa7	-0.33727762
160	0x3b969324	0.0045951772
161	0xbe30d57d	-0.1726894
162	0xbead538b	-0.338528
163	0x3e1ff366	0.15620193
164	0x3a46705c	0.00075698434
165	0x3ea1c45b	0.3159512
166	0x3e86e735	0.26348272
167	0xbe844ca4	-0.25839722
168	0x3d683a88	0.056696445
169	0x3e7bd267	0.24591981
170	0xbe840d00	-0.25791168
171	0xbe88d997	-0.26728508
172	0x3e9a2a1e	0.30110258
173	0xbe4aa135	-0.19788058
174	0xbe6f2734	-0.23354799
175	0xbe8c6196	-0.27418202
176	0x3dc1138e	0.09427558
177	0xbe5bb8b0	-0.21457171
178	0x3cc2fd63	0.023802465
179	0x3db99384	0.090613395
180	0x3de5310c	0.111909956
181	0x3e9f57bc	0.31121624
182	0xbea7019e	-0.3261842
183	0xbdefb335	-0.11704103
184	0xbdbd4fb8	-0.09243721
185	0x3eac7ca1	0.33688834
186	0xbdd82cfb	-0.10555454
187	0xbe64119f	-0.22272347
188	0x3e0c1c7a	0.13682738
189	0xbdcfba4c	-0.10142955
190	0x3ea3d305	0.31996933
191	0x3e5bf96b	0.21481864
192	0x3da44734	0.080213934
193	0x3dcc3692	0.09971346
194	0x3e91c2ff	0.28469083
195	0x3d6152ea	0.055010714
196	0x3e39d453	0.18147402
197	0x3e8b0fd0	0.271605
198	0x3e28272d	0.16421194
199	0x3d79cc6d	0.06098597
200	0xbe2d879b	-0.1694626
201	0x3e52dde8	0.20592463
202	0xbe032fba	-0.12811175
203	0xbd925a19	-0.07146091
204	0xbe153810	-0.14572167
205	0x3ddb4b94	0.10707775
206	0xbddfc739	-0.109266706
207	0x3e94d7da	0.29070932
208	0xbe72890e	-0.23685095
209	0x3ccb19f5	0.02479265
210	0xbe6997a5	-0.22811754
211	0xbe32a8ad	-0.17447157
212	0x3e4893de	0.19587657
213	0xbeaa8737	-0.33306286
214	0xbe479ebd	-0.19494148
215	0x3df1e04b	0.118103586
216	0x3e2ae0c4	0.16687304
217	0x3cc1c5e1	0.023653926
218	0xbbbb5b49	-0.005717669
219	0xbd093f3f	-0.03350758
220	0xbdb0b557	-0.08628338
221	0xbe00a56c	-0.12563103
222	0x3e3f2b08	0.18668759
223	0x3db5d4a9	0.08878452
224	0x3e31c3ce	0.1735985
225	0xbdcff64f	-0.101544015
226	0x3ea505d3	0.32231006
227	0xbea5fd78	-0.32419944
228	0xbc8b5de5	-0.017012546
229	0x3e2b9a3b	0.16758053
230	0x3d85fb35	0.065420546
231	0x3e0a4b4d	0.13505287
232	0xbe6e152e	-0.23250267
233	0x3e58b42f	0.21162485
234	0xbeb8af52	-0.3607126
235	0x3d9f6785	0.07783417
236	0xbda4a93c	-0.080400914
237	0x3dba0a97	0.09084051
238	0x3dc8e61a	0.098095134
239	0xbe84c943	-0.259348
240	0x3e1e2211	0.15442683
241	0xbe471f85	-0.19445617
242	0x3d41bad8	0.04729733
243	0x3de471e1	0.11154533
244	0xbc6a811d	-0.01431301
245	0xbe1b17e8	-0.15145838
246	0xbe14ae0e	-0.14519522
247	0xbe272b32	-0.16325071
248	0xbe4969e6	-0.19669303
249	0x3e6c9507	0.23103724
250	0x3cbf9fba	0.023391593
251	0xbe9f8aee	-0.31160682
252	0x3e8e6f4d	0.2781929
253	0x3dde3dbf	0.10851621
254	0x3dd3ba39	0.103382535
255	0x3d224827	0.03961959

answer_proj.bias f4 [32]
0	0xbe14fbbd	-0.14549156
1	0x3d6a6c67	0.057232287
2	0xbe708249	-0.234872
3	0xbdced55f	-0.10099291
4	0x3c47dfcb	0.0121993525
5	0xbe57383f	-0.2101755
6	0x3df93c11	0.1216966
7	0xbe631405	-0.22175606
8	0xbe1bb170	-0.15204406
9	0x3e191f13	0.1495326
10	0xbd6f4e52	-0.0584243
11	0xbe8a31d7	-0.2699115
12	0x3e9ac4d9	0.30228308
13	0xbeb27584	-0.34855282
14	0x3e167336	0.14692387
15	0x3e3affc7	0.18261634
16	0xbdb53d9a	-0.0884964
17	0xbd577184	-0.05259849
18	0x3e9e81e9	0.3095849
19	0x3e362fe5	0.17791708
20	0x3e21a695	0.15786202
21	0x3d911be3	0.07085397
22	0xbd8a7e65	-0.06762389
23	0xbe8a8060	-0.27051067
24	0x3e707ac3	0.2348433
25	0x3e153b3f	0.14573382
26	0xbe7604e5	-0.24025305
27	0x3e66e029	0.22546448
28	0x3d871442	0.06595661
29	0x3df63b68	0.120230496
30	0xbe638c78	-0.22221553
31	0x3dc09036	0.09402506

conv1.convs.<step___implies___step>.lin_l.weight f4 [32, 32]
0	0xbda0b954	-0.078478485
1	0x3df029f3	0.11726751
2	0x3e161964	0.14658123
3	0x3d64eef3	0.055891942
4	0x3d903864	0.07042006
5	0xbd2de8a5	-0.042458195
6	0xbe25a740	-0.16177082
7	0xbc6e9668	-0.014562227
8	0x3c780efe	0.015140293
9	0x3d75bf25	0.059996743
10	0xbc799f9c	-0.015235808
11	0x3ccfdfd1	0.025375279
12	0xbe2448b5	-0.1604336
13	0xbdd62123	-0.10455539
14	0x3d4b7ca1	0.049679402
15	0x3ddea7b5	0.10871831
16	0x3e086ce1	0.13322784
17	0x3c28892e	0.010286612
18	0xbddf6277	-0.109074526
19	0xbe2e9336	-0.17048344
20	0xbe339955	-0.1753896
21	0xbdd4d9b9	-0.1039309
22	0xbd4a3dfc	-0.04937552
23	0xbe24c43d	-0.16090484
24	0x3db1b04e	0.086762056
25	0xbc12c8fe	-0.008959053
26	0xbe1fdc5d	-0.15611406
27	0x3d9a6f04	0.07540706
28	0xbbdc8e06	-0.0067307977
29	0x3de03aa2	0.10948683
30	0xbdff33b0	-0.124610305
31	0x3d24b18c	0.040208384
32	0x3e20e528	0.15712416
33	0xbcae6567	-0.021288587
34	0xbd4921c5	-0.04910447
35	0xbdc2e9d5	-0.09517256
36	0xbc53bf04	-0.01292396
37	0xbc1bd4e1	-0.0095112035
38	0xbd42b473	-0.04753537
39	0xbe2fdfc2	-0.171752
40	0x3e29aeae	0.16570541
41	0xbd6a0285	-0.05713131
42	0x3db04b80	0.086081505
43	0x3e0bdaa5	0.13657625
44	0x3e070e5a	0.13189068
45	0xbd96319c	-0.07333681
46	0x39ad7982	0.00033087662
47	0xbdaa602c	-0.083191246
48	0x3d4536f2	0.048148103
49	0xbe171377	-0.14753519
50	0x3e25de6e	0.16198131
51	0xbd4eb1ab	-0.050462406
52	0x3e0ad3a7	0.13557301
53	0xbe1d4067	-0.15356599
54	0xbe1137b6	-0.14181408
55	0xbcce77ac	-0.025203548
56	0xbdb483c9	-0.088141985
57	0x3d452fda	0.048141338
58	0x3de9b929	0.114122696
59	0xbe0a3e5d	-0.13500352
60	0xbc997045	-0.018730292
61	0x3d2ddc47	0.0424464
62	0x3d107b04	0.035273567
63	0x3dd72cd6	0.10506599
64	0xbcc76e21	-0.024344506
65	0x3dd6bb6f	0.10484969
66	0xbe171d51	-0.14757277
67	0x3d520b56	0.051280342
68	0x3d5338b6	0.051567756
69	0x3cc012be	0.023446437
70	0x3d820e22	0.06350352
71	0xbd2680c2	-0.040650137
72	0x3e1064a9	0.14100899
73	0x3c21bbbd	0.00987142
74	0x3e206fa6	0.1566759
75	0x3e0bb4b6	0.13643155
76	0x3d5e57b5	0.054282863
77	0x3dd06bcf	0.10176813
78	0x3dc832be	0.09775303
79	0xb947cbae	-0.00019053995
80	0x3dec744f	0.115456216
81	0x3d84e436	0.0648884
82	0xbd34f015	-0.044174273
83	0xbb92bbcb	-0.004477953
84	0x3dfef491	0.12448991
85	0xbd13b01a	-0.036056615
86	0x3db2d8e7	0.08732777
87	0x3de0350e	0.109476194
88	0x3dc20877	0.09474271
89	0x3e288d6c	0.16460198
90	0x3d4adbd5	0.049526054
91	0x3e163306	0.14667901
92	0xbdaf3477	-0.08554929
93	0x3d9a612d	0.07538066
94	0x3c713b33	0.014723587
95	0xbe1747a4	-0.14773422
96	0xbdfac4ed	-0.12244592
97	0xbddbda48	-0.10734993
98	0x3e178de2	0.14800218
99	0xbd40e789	-0.04709581
100	0xbe213609	-0.15743269
101	0x3e225473	0.15852527
102	0x3e060b7a	0.13090315
103	0x3da59db1	0.08086718
104	0xbe1f4d76	-0.15556893
105	0x3daad98b	0.08342274
106	0x3b61e47b	0.003446846
107	0xbe04cc95	-0.12968667
108	0x3c0bdeab	0.008536975
109	0xbdaedf12	-0.08538641
110	0xbd3468a4	-0.044045106
111	0xbd1ce3d1	-0.0383032
112	0x3e21698c	0.15762919
113	0xbd8133be	-0.06308697
114	0x3dfb5c04	0.1227341
115	0xbdcf114f	-0.10110723
116	0xbe22347e	-0.15840337
117	0xbd955e31	-0.07293356
118	0x3db5bc67	0.088738255
119	0xbd8178f7	-0.063219
120	0xbc8702de	-0.01648086
121	0xbdc6ddec	-0.09710297
122	0x3d7dae6b	0.061933916
123	0x3db11af0	0.08647716
124	0xbd104da9	-0.035230312
125	0xbe158dbb	-0.14604847
126	0xbc361e14	-0.01111557
127	0xbe0e9774	-0.13924962
128	0xbe1d49a0	-0.15360117
129	0x3e1870a6	0.14886722
130	0x3c59fb26	0.013304507
131	0x3d999dbb	0.07500788
132	0x3c46f2d3	0.012142855
133	0x3d69f8ad	0.05712192
134	0xbe0b6f22	-0.13616613
135	0xbe01cf4b	-0.12676732
136	0xbd530cbf	-0.051525827
137	0x3e00112e	0.12506554
138	0xbcc3704f	-0.023857264
139	0x3e085f05	0.13317497
140	0xbc49c677	-0.012315384
141	0xbe0f278a	-0.13979927
142	0x3db90ae8	0.09035283
143	0xbda92142	-0.082582965
144	0x3e039057	0.1284803
145	0x3e05a616	0.13051638
146	0x3ca4c20c	0.02011206
147	0x3d12ad10	0.035809577
148	0xbdeaf6f1	-0.114728816
149	0xbdc9a57b	-0.09846016
150	0xbdcd0d54	-0.10012308
151	0x3dbaf724	0.091291696
152	0xbded3697	-0.11582678
153	0xbda269ef	-0.079303615
154	0x3e2970d7	0.16546951
155	0xbcf0c205	-0.02938939
156	0x3e1d0200	0.15332794
157	0xbe1d41eb	-0.15357177
158	0xbd923093	-0.07138171
159	0xbe27b245	-0.16376598
160	0xbe300ba1	-0.17191936
161	0x3e01b235	0.12665637
162	0xbcc32f38	-0.023826227
163	0xbe2cff6a	-0.16894308
164	0x3dc6b8bd	0.09703205
165	0xbc657520	-0.014004976
166	0x3c6c3c76	0.014418712
167	0x3d8c0958	0.0683772
168	0xbc62a967	-0.013834334
169	0xbe03c79f	-0.12869118
170	0x3c7e7244	0.015530173
171	0x3d84929c	0.06473276
172	0xbd60adba	-0.05485318
173	0xbdcfcb55	-0.101462044
174	0x3dc4625e	0.095890746
175	0x3e0adbba	0.13560382
176	0x3e6f76fc	0.23385233
177	0x3d930e32	0.07180442
178	0x3d595f67	0.0530695
179	0xbdb57a49	-0.08861215
180	0x3e66698a	0.22501197
181	0xbe3e04ef	-0.1855657
182	0xbdb5a6c7	-0.08869701
183	0xbcf35322	-0.029702727
184	0x3e19dd71	0.1502588
185	0xbdc72423	-0.097236894
186	0x3df05890	0.11735642
187	0x3d2dab84	0.0423999
188	0xbe24fceb	-0.16112106
189	0x3e307249	0.17231096
190	0xbdfc9d5f	-0.12334704
191	0x3d12b9dd	0.035821784
192	0x3d78beac	0.060728714
193	0x3e02d0f9	0.12775029
194	0x3d5adcdc	0.053433284
195	0x3d898161	0.0671413
196	0x3e167958	0.14694726
197	0x3cc74a5c	0.02432745
198	0x3d057b1c	0.03258811
199	0xbe164dda	-0.14678136
200	0x3d5a4da8	0.053296715
201	0xbe02e2e1	-0.1278186
202	0x3dc12714	0.09431282
203	0xbe1953a8	-0.14973319
204	0x3e04267b	0.12905304
205	0x3d90a792	0.070632115
206	0x3d8380a9	0.06421024
207	0x3d7829c1	0.060586695
208	0xbe1255bf	-0.14290522
209	0xbdc54771	-0.09632767
210	0x3dfb74c6	0.12278132
211	0x3e2a3ae8	0.16624033
212	0xbce5d3ca	-0.02805509
213	0xbda6f8d2	-0.081529275
214	0x3d6fdb0f	0.05855852
215	0x3da558ed	0.08073602
216	0x3d0a5e71	0.033781473
217	0x3d6bdf97	0.05758628
218	0x3da8c406	0.082405135
219	0xbd98f6c6	-0.07468943
220	0xbdd0135e	-0.10159944
221	0xbd681a47	-0.056665685
222	0x3e0f99ac	0.14023465
223	0xbdeec95c	-0.116595
224	0x3e2b2668	0.1671387
225	0x3d1b1149	0.03785828
226	0xbd425615	-0.047445375
227	0x3cecb4cd	0.028894806
228	0x3e11f757	0.14254509
229	0x3d47dc74	0.048794225
230	0x3e35b803	0.17745976
231	0x3c417a44	0.011808936
232	0x3d5a3390	0.05327183
233	0x3db9d700	0.09074211
234	0x3ce566b6	0.028003078
235	0x3c9450cf	0.018104939
236	0x3d4cf2f1	0.050036374
237	0xbd5e9132	-0.054337688
238	0xbde8fde1	-0.113765486
239	0x3deeac18	0.11653918
240	0xbd2e6021	-0.042572144
241	0xbcb300ad	-0.021850908
242	0x3d449b2a	0.04799954
243	0xbc05f90f	-0.008177056
244	0xbe0583fe	-0.13038632
245	0x3db6f3a9	0.08933193
246	0xbdc2ec12	-0.09517683
247	0x3ddd22c6	0.10797648
248	0x3a2f556c	0.0006688449
249	0xbd3d35eb	-0.046194
250	0x3c805545	0.01566566
251	0x3b8e6ed3	0.0043467074
252	0x3daf76a8	0.08567554
253	0x3dba29c6	0.09089999
254	0x3db97190	0.090548635
255	0xbdd9727f	-0.106175415

conv1.convs.<step___implies___step>.lin_l.bias f4 [32]
0	0xbda80332	-0.082037345
1	0x3dd14073	0.10217371
2	0xbe006667	-0.12539063
3	0xbddbdfce	-0.10736047
4	0x3ccea5ad	0.025225485
5	0x3e280e62	0.16411737
6	0xbe5ae7be	-0.21377465
7	0x3dd9a224	0.10626629
8	0xbd824014	-0.06359878
9	0xbda92f93	-0.08261027
10	0xbaa7bbfe	-0.0012797115
11	0xbd810fbe	-0.06301831
12	0xbce334bd	-0.027735109
13	0xbe32ff55	-0.17480214
14	0x3dcc3cee	0.09972559
15	0x3dbfbe0e	0.09362422
16	0xbdfefbed	-0.12450395
17	0xbcd817bb	-0.026378503
18	0xbb248221	-0.0025101977
19	0xbd46bf10	-0.048522055
20	0xbca6c937	-0.020359619
21	0xbda5f9f2	-0.08104314
22	0xbcdc4977	-0.0268905
23	0x3c10c1ee	0.008835299
24	0xbe24d2ed	-0.16096087
25	0xbd82edfd	-0.06393049
26	0x3cbae4cb	0.022814175
27	0xbe193e70	-0.14965224
28	0x3dc3a039	0.095520444
29	0x3e35d9cc	0.17758864
30	0x3d8fada0	0.07015538
31	0xbd9cf93f	-0.076647274

conv1.convs.<step___implies___step>.lin_r.weight f4 [32, 32]
0	0x3c61e3b5	0.0137872
1	0x3dd9dde2	0.10638024
2	0x3e063419	0.13105811
3	0xbdfb0b87	-0.12258058
4	0x3da19293	0.07889285
5	0xbda98df6	-0.0827903
6	0x3d08e276	0.033419095
7	0xbda5ea20	-0.081012964
8	0xbddd5070	-0.10806358
9	0xbc66b0c2	-0.014080228
10	0xbb149c2e	-0.0022676098
11	0x3a6a6fad	0.00089430326
12	0x3ddeece0	0.10885024
13	0xbd5738a5	-0.052544255
14	0xbcdd94a8	-0.027048424
15	0x3b1d6207	0.0024014728
16	0xbd3ba018	-0.045806974
17	0xbc8a7194	-0.016899861
18	0xbda84dc4	-0.082179576
19	0x3e0e1339	0.1387452
20	0x3cbb3037	0.022850139
21	0xbe11547f	-0.14192389
22	0x3e087a57	0.13327919
23	0xbdffdf11	-0.124937184
24	0xbc568e94	-0.013095517
25	0x3dff638f	0.12470161
26	0x3cacdc64	0.021101184
27	0x3db7948c	0.0896388
28	0xbe0abd6f	-0.13548826
29	0xbe1b52b7	-0.15168272
30	0xbd883913	-0.06651511
31	0x3d36502a	0.044510044
32	0xbd9b2c4c	-0.07576808
33	0xbc48f089	-0.012264379
34	0xbdc4eb9e	-0.09615253
35	0x3d2ddd11	0.042447153
36	0xbcafa9d5	-0.021443287
37	0xbc840d8e	-0.016119745
38	0xbde01edb	-0.10943385
39	0xbc39aa3e	-0.011332093
40	0x3e32686b	0.17422645
41	0x3e0a17da	0.13485661
42	0x3e31b9ce	0.17356035
43	0x3c212369	0.009835103
44	0xbe205e66	-0.1566101
45	0xbd90d392	-0.07071604
46	0xbce723ac	-0.028215252
47	0x3dbcd55a	0.09220381
48	0xbe310c2a	-0.17289796
49	0xbd3dba62	-0.046320327
50	0x3df522f0	0.119695544
51	0xbc04f55c	-0.008115139
52	0x3d416177	0.04721209
53	0x3d086025	0.033294816
54	0x3e06d0f9	0.13165654
55	0x3db5df4c	0.08880481
56	0xbd763f8c	-0.060119197
57	0xbcd6a2ae	-0.026200619
58	0x3d13f758	0.036124557
59	0x3e0c8b1a	0.13724938
60	0xbd506d73	-0.05088563
61	0xbe3dcc5f	-0.18534993
62	0x3e0f2893	0.13980322
63	0xbde8fd51	-0.11376441
64	0x3b2f0148	0.0026703645
65	0x3e0c5704	0.13705069
66	0x3e292e85	0.16521652
67	0x3dcb0031	0.09912146
68	0xbdf632b4	-0.120213896
69	0xbddd87af	-0.10816895
70	0xbcd96ed8	-0.026542112
71	0x3ca7e35d	0.020494157
72	0xbe086f6f	-0.13323759
73	0x3e2083e9	0.1567532
74	0x3dbe7408	0.09299475
75	0xbd9722ef	-0.0737971
76	0xbb914b0f	-0.0044339965
77	0x3dbaa36e	0.09113203
78	0xbc4281dc	-0.011871781
79	0x3e0f9545	0.14021786
80	0x3d8d4ada	0.068990424
81	0xbb780e6e	-0.0037850398
82	0xbe0c7b8b	-0.13719003
83	0x3d0c7ab6	0.034296714
84	0xbcace49a	-0.0211051
85	0x3e00d8b7	0.1258267
86	0x3dd693ca	0.10477407
87	0xbde1aaa9	-0.11018879
88	0xbe255a65	-0.16147764
89	0x3d2f3bbb	0.042781573
90	0x3e0fa779	0.1402873
91	0xbcfb6e5b	-0.03069227
92	0xbde1ad78	-0.11019415
93	0x3dbb1a2d	0.09135852
94	0x3d6fa515	0.058507044
95	0xbd4c0f21	-0.049819116
96	0xbd46ac29	-0.04850403
97	0xbd13e183	-0.036103737
98	0x3c4dbfb9	0.012557917
99	0xbde85657	-0.11344593
100	0xbda79085	-0.08181862
101	0xbe209014	-0.15679961
102	0x3df5d78e	0.120040044
103	0xbcd29473	-0.025705552
104	0xbd0e6008	-0.03475955
105	0x3d87feba	0.06640382
106	0x3dc74aeb	0.09731086
107	0xbd0b86d3	-0.034064125
108	0x3e24362e	0.16036293
109	0x3e15cf39	0.1462983
110	0xbb3b3c14	-0.0028569745
111	0x3de9fa6a	0.11424716
112	0x3b6fffd9	0.0036621003
113	0x3da60d3b	0.08107992
114	0xbca67d01	-0.020323278
115	0x3d44f9b5	0.0480897
116	0x3d90e4c4	0.070748836
117	0xbe1a229a	-0.15052262
118	0xbd2a78b3	-0.041619014
119	0x3d5665aa	0.05234305
120	0xbc61d9af	-0.01378481
121	0x3df19ee0	0.11797881
122	0xbcf63aa4	-0.030057259
123	0x3d3a1e83	0.045439254
124	0xbdc5a5b9	-0.0965075
125	0x3e0c63e3	0.13709979
126	0xbe1031f1	-0.14081551
127	0xbdeda0a0	-0.116029024
128	0x3de916b8	0.113812864
129	0xbd1c3e0b	-0.038145106
130	0xbc8df37b	-0.017328015
131	0xbd1a3d01	-0.037655834
132	0x3e0485b6	0.12941632
133	0x3dd5b8c6	0.10435633
134	0x3d63a379	0.05557582
135	0x3db343da	0.08753176
136	0x3ce637b1	0.028102728
137	0x3d863d1a	0.06554623
138	0x3df31b22	0.118704095
139	0x3df3ff4c	0.119139284
140	0x3d01172d	0.031516243
141	0x3e1d492c	0.15359944
142	0x3e34b54b	0.17647283
143	0x3dc5816a	0.096438244
144	0x3e158fee	0.14605686
145	0xbdaca067	-0.08429032
146	0xbd733e38	-0.05938551
147	0xbd4000c3	-0.046875726
148	0x3ddedbfa	0.10881801
149	0xbe37e08b	-0.1795675
150	0xbd95b4e2	-0.07309891
151	0xbe08e68f	-0.13369201
152	0xbe0ed9e6	-0.13950309
153	0x3e0fc884	0.14041334
154	0xbdf96978	-0.1217832
155	0x3db1d3de	0.086829886
156	0xbe0926bb	-0.13393681
157	0x3d4270b6	0.04747077
158	0x3ddd22f9	0.10797686
159	0x3d1773d5	0.0369757
160	0x3db96911	0.09053243
161	0x3d8c4baf	0.06850373
162	0xbda3e83b	-0.08003279
163	0x3e2d8bc2	0.16947845
164	0x3ccca1c8	0.024979487
165	0x3e3efd5d	0.18651338
166	0x3df48988	0.119402945
167	0x3da82e89	0.08212001
168	0x3e0b5a3c	0.1360864
169	0xbc4a9236	-0.012363961
170	0x3d2f6725	0.042822976
171	0x3da17f63	0.07885625
172	0xbe19a464	-0.15004116
173	0xbcd67931	-0.026180835
174	0xbe3bd7b6	-0.18344006
175	0xbc62f869	-0.013853171
176	0xbddfcaad	-0.10927329
177	0x3e0c7282	0.13715556
178	0x3d2ce059	0.042206142
179	0xbe1e2c21	-0.15446521
180	0x3e497c76	0.19676384
181	0xbe38cb7d	-0.18046375
182	0x3d11b85e	0.035576217
183	0xbdb2bac4	-0.08727029
184	0x3a26e683	0.00063667464
185	0x3e1bbdd9	0.1520914
186	0xbe04913f	-0.12946032
187	0xbdf5f91c	-0.120104045
188	0x3dfa0655	0.12208239
189	0xbc8d12f4	-0.017220952
190	0x3e204f8a	0.15655342
191	0x3d97dafc	0.07414815
192	0x3e034569	0.12819447
193	0xbe21cc71	-0.15800644
194	0x3de0aeff	0.10970878
195	0xbddc05f8	-0.10743326
196	0x3d4644be	0.0484054
197	0x3ccfb27b	0.02535366
198	0xbda2dafb	-0.079519235
199	0xbcf3a55f	-0.029741941
200	0xbd621af8	-0.0552015
201	0x3d9a5e40	0.07537508
202	0xbc09b8e6	-0.0084059
203	0xbdbf4ca7	-0.09340792
204	0x3e2455ba	0.16048327
205	0xbc395a41	-0.011313022
206	0x3d5f7627	0.05455604
207	0x3e29adb1	0.16570164
208	0x3dbb9f29	0.09161217
209	0xbe0e338c	-0.13886851
210	0xbe189712	-0.14901379
211	0xbc4ccd5f	-0.012500136
212	0x3e05d589	0.13069738
213	0xbded238b	-0.11579045
214	0x3e18b42e	0.14912483
215	0xbd91d40d	-0.071205236
216	0x3e0bc8d8	0.13650835
217	0xbe122fcc	-0.14276046
218	0xbda2dca2	-0.079522386
219	0x3e194924	0.14969307
220	0xbe292a3d	-0.16520019
221	0x3dbe175d	0.092818
222	0x3e16a618	0.14711797
223	0xbdb5b071	-0.08871544
224	0xbdb9b401	-0.09067536
225	0x3e17b69d	0.14815755
226	0xbdcee9cd	-0.10103188
227	0xbd0ec208	-0.03485301
228	0x3d8b2131	0.0679344
229	0xbdf842be	-0.12122105
230	0x3d764b6a	0.060130514
231	0x3e0310c8	0.1279937
232	0xbdfb8b99	-0.122824855
233	0xbdd429ee	-0.1035956
234	0xbe44f5f7	-0.19234453
235	0xbe2265e2	-0.15859178
236	0x3c7366de	0.014856068
237	0xbe1b421e	-0.1516194
238	0xbd9a3186	-0.07528977
239	0xbe229700	-0.15877914
240	0xbd00428f	-0.031313475
241	0xbd4a9e60	-0.049467444
242	0x3e235d6c	0.15953606
243	0x3c8e2bca	0.017354865
244	0xbd6abe13	-0.057310175
245	0x3e240f56	0.16021475
246	0x3cad9afc	0.021192066
247	0x3da67e80	0.08129597
248	0x3cd9e83c	0.026599996
249	0xbe3a6236	-0.18201527
250	0xbd91b67d	-0.07114885
251	0x3d506c38	0.050884455
252	0x3d0ee468	0.034885794
253	0xbd810928	-0.063005745
254	0xbe22a5d9	-0.15883578
255	0x3e0e6e0c	0.13909167

conv1.convs.<step___semantic___step>.lin_l.weight f4 [32, 32]
0	0x3e0881c2	0.13330749
1	0x3db32701	0.08747674
2	0xbe0096ff	-0.125576
3	0x3d2c24f3	0.042027425
4	0x3e2a870a	0.16653076
5	0x3e2ab628	0.1667105
6	0xbe07459b	-0.13210146
7	0xbcfd5b4e	-0.030927327
8	0x3dee73df	0.116431944
9	0x3d8a3784	0.0674887
10	0x3dd0a576	0.10187809
11	0x3d823f21	0.06359697
12	0x3df3671e	0.118849024
13	0xbc8ac56f	-0.016939847
14	0xbda294a2	-0.07938506
15	0xbe2351fa	-0.1594924
16	0x3e0e59c3	0.13901429
17	0xbbfb94cc	-0.00767765
18	0x3df916a4	0.121625215
19	0x3e09bbf0	0.13450599
20	0x3e1b6992	0.1517699
21	0x3df352c4	0.11881021
22	0xbe0c085c	-0.13675064
23	0xbdd4cc59	-0.10390539
24	0x3d73306c	0.05937235
25	0xbdca5ad7	-0.098806076
26	0xbd695b9d	-0.056972135
27	0x3cdeee0a	0.027213115
28	0xbe33c68f	-0.17556213
29	0x3c7642bd	0.01503056
30	0xbe2fbda1	-0.17162181
31	0xbbd60ecd	-0.006532526
32	0xbe27ea72	-0.16398028
33	0xbcb49f3f	-0.02204859
34	0xbd8005cc	-0.06251106
35	0xbe1e90bb	-0.15484898
36	0xbde131ed	-0.10995851
37	0x3dd6e792	0.10493387
38	0x3e00b5cc	0.1256935
39	0xbd9c09fc	-0.07619092
40	0xbdc81602	-0.09769823
41	0xbe16aeaa	-0.14715067
42	0x3dfd19a7	0.123584084
43	0x3e0100fd	0.12598033
44	0xbe37be92	-0.1794379
45	0x3cec869d	0.028872782
46	0xbe26d9bf	-0.16294001
47	0xbdf89f42	-0.12139751
48	0xbda74de4	-0.08169153
49	0xbdfd6045	-0.123718776
50	0xbe35599f	-0.17709969
51	0x3d32cf1c	0.043654546
52	0xbe2c7e0f	-0.16844963
53	0x3decd8ba	0.11564775
54	0x3dd47440	0.103737354
55	0xbe0844b6	-0.13307461
56	0x3c8823b1	0.016618581
57	0x3d4e2e68	0.050337225
58	0xbd453348	-0.04814461
59	0xbe2dec68	-0.16984713
60	0x3db17229	0.086643524
61	0xbe215566	-0.15755233
62	0xbdc6b5b7	-0.09702628
63	0xbd83c47b	-0.0643396
64	0xbc8220a7	-0.01588471
65	0x3d8a19f4	0.067432314
66	0xbd103b60	-0.035212874
67	0xbe23e5d7	-0.16005646
68	0xbcc8329d	-0.024438197
69	0xbde7731a	-0.11301251
70	0xbdc4af4d	-0.096037485
71	0xbd60df1f	-0.054900285
72	0xbc497678	-0.012296312
73	0xbd1678c1	-0.036736254
74	0x3c8c3f85	0.017120132
75	0x3db65c51	0.08904327
76	0xbe152043	-0.14563088
77	0x3e2fe8ce	0.17178652
78	0x3e31e97f	0.17374228
79	0x3da36a45	0.07979254
80	0xbbfb04e4	-0.007660495
81	0x3d25d0c5	0.0404823
82	0x3c806cc5	0.015676865
83	0xbd7175c9	-0.05895022
84	0xbe0a0a64	-0.13480526
85	0xbddb2eb2	-0.10702266
86	0xbdbcd7eb	-0.092208706
87	0xbdf47f42	-0.11938335
88	0x3d9eb13d	0.07748649
89	0x3d2f6eea	0.042830385
90	0xbe2c4bae	-0.16825745
91	0xbd994b61	-0.074850805
92	0x3d889aec	0.06670174
93	0xbca75d64	-0.020430274
94	0xbe365b6d	-0.17808314
95	0x3dba4bbb	0.09096476
96	0x3e0f744f	0.14009212
97	0x3dccdda1	0.1000321
98	0xbe22432e	-0.1584594
99	0x3d37a02f	0.044830497
100	0x3cf17bd6	0.029477995
101	0xbdbb5075	-0.09146205
102	0xbe0253be	-0.12727258
103	0x3df2f188	0.11862475
104	0xbd8b15eb	-0.0679129
105	0xbd7b0dad	-0.06129234
106	0xbe33edbd	-0.17571159
107	0xbd9a1614	-0.07523742
108	0xbe11b8ae	-0.14230606
109	0xbd6d21cf	-0.05789357
110	0xbe1d46ea	-0.15359083
111	0xbe2e427b	-0.17017548
112	0x3d5bf8f8	0.053704232
113	0xbd7a3f9f	-0.06109583
114	0xbdf82258	-0.121159256
115	0xbd315431	-0.04329318
116	0xbd19decc	-0.03756599
117	0x3da2bd5e	0.07946275
118	0x3d66346b	0.056202333
119	0x3a10e54e	0.0005527333
120	0xbdbe83ac	-0.09302458
121	0xbe1ba6df	-0.15200375
122	0xbe1815e2	-0.14852098
123	0x3c510d48	0.012759514
124	0x3b765ed3	0.003759314
125	0xbd2c8892	-0.04212243
126	0xbe29df06	-0.16588983
127	0xbd8c4284	-0.06848624
128	0xbdc4d3c2	-0.09610702
129	0xbd45c463	-0.048282992
130	0x3d8111ca	0.06302221
131	0x3bf4e68b	0.007473772
132	0x3e2303b2	0.15919378
133	0xbd430506	-0.047612213
134	0x3deca55b	0.115549766
135	0xbd8c349d	-0.06845973
136	0x3a8edf15	0.0010900224
137	0xbdfe1396	-0.124060795
138	0xbdf9723b	-0.12179991
139	0x3d469808	0.048484832
140	0x3da0a808	0.078445494
141	0x3d2ef865	0.042717356
142	0x3db96f7e	0.090544686
143	0xbde484e6	-0.11158161
144	0x3dffd3f9	0.124916025
145	0xbcb5ae6d	-0.0221779
146	0xbe0e1b24	-0.13877541
147	0x3e03beea	0.12865797
148	0x3e1a7c55	0.15086491
149	0xbe1326db	-0.14370291
150	0xbe226108	-0.15857327
151	0x3cf491d0	0.029854685
152	0x3c73a8aa	0.014871756
153	0x3d85912d	0.06521831
154	0x3def9970	0.11699188
155	0x3de682f5	0.11255447
156	0xbe2044df	-0.15651272
157	0x3d88f241	0.06686831
158	0xbd85da09	-0.065357275
159	0x3ca63e4a	0.020293374
160	0xbe01d93b	-0.12680523
161	0xbe2d2bc7	-0.16911231
162	0xbcd44782	-0.025913004
163	0x3cd2c880	0.025730371
164	0x3dbbf0d3	0.09176793
165	0x3e07fd9f	0.13280343
166	0x3cb50681	0.022097828
167	0xbcfd5cf4	-0.030928113
168	0x3daa0d10	0.08303273
169	0x3d039837	0.032127585
170	0x3da331c7	0.07968479
171	0x3e18e0d0	0.14929509
172	0x3d74d460	0.05977285
173	0xbc938f7d	-0.018012756
174	0xbe1af767	-0.15133439
175	0xbdc3b26c	-0.09555516
176	0x3c1ee089	0.009697088
177	0x3e29b4fd	0.16572948
178	0xbda4c806	-0.08045964
179	0x3bd6c879	0.00655466
180	0x3d9b4886	0.07582192
181	0x3d9345a6	0.07191019
182	0xbe12c6b0	-0.14333606
183	0xbb4d88fc	-0.0031362167
184	0xbe1364b2	-0.14393881
185	0xbdb4c2b7	-0.088262014
186	0xbd42ff20	-0.047606587
187	0x3e1c618a	0.15271583
188	0xbe2c75c0	-0.16841793
189	0x3d42020f	0.047365244
190	0x3e009f44	0.12560755
191	0xbc0ecb53	-0.008715468
192	0xbe0ecaa6	-0.13944492
193	0xbdc9f0e7	-0.098604016
194	0xbe101491	-0.14070345
195	0xbdd64d3f	-0.10463952
196	0xbb57bfe9	-0.0032920784
197	0x3e26c626	0.16286525
198	0x3d534836	0.051582538
199	0xbd628162	-0.05529917
200	0x3e1add57	0.15123497
201	0x3e0d395d	0.13791414
202	0x3e1fb80c	0.15597552
203	0xbe1f036a	-0.15528646
204	0xbd50c36b	-0.050967615
205	0xba682b57	-0.0008856556
206	0xbd3da593	-0.046300482
207	0xbe3080f1	-0.17236687
208	0xbdda10f0	-0.10647762
209	0x3e2c8760	0.16848516
210	0xbdb1fc70	-0.08690727
211	0xbd9c8ffd	-0.07644651
212	0xbb539f33	-0.0032290935
213	0x3d83270b	0.06403931
214	0xbdda3ee1	-0.106565244
215	0x3e105a79	0.14097013
216	0x3dff9efb	0.12481495
217	0x3cddc09e	0.027069386
218	0xbd153d9f	-0.03643572
219	0x3de6d427	0.112709336
220	0x3dfb79b4	0.122790724
221	0xbdf24659	-0.11829824
222	0x3de222b5	0.11041776
223	0xbdc3d9a1	-0.09562994
224	0xbd75cd69	-0.060010348
225	0x3cb8fe67	0.022582246
226	0xbe3ca578	-0.18422496
227	0xbca96ac9	-0.020680802
228	0xbdcc0b8f	-0.09963142
229	0xbe2ca0c5	-0.16858204
230	0x3d943cef	0.07238185
231	0x3e263110	0.16229653
232	0x3dd223bd	0.10260723
233	0xbdbaa966	-0.091143414
234	0x3d1e1a55	0.03859933
235	0xbdc85456	-0.09781711
236	0x3ce3d968	0.027813628
237	0xbdf0a764	-0.11750677
238	0x3de606e1	0.11231781
239	0x3d850105	0.06494335
240	0xbd2c2b7a	-0.04203365
241	0x3dcfbbc6	0.10143237
242	0x3d82b5a9	0.06382305
243	0xbdb64908	-0.08900648
244	0x3e3998c8	0.18124688
245	0xbe0a00a9	-0.13476814
246	0x3e171205	0.14752968
247	0xbd9915c7	-0.07474857
248	0x3d66f3d2	0.05638487
249	0x3e0ba539	0.13637246
250	0xbc3088dc	-0.010774817
251	0xbe08bdac	-0.13353604
252	0xbda1a6bc	-0.0789313
253	0x3e27f8fe	0.16403577
254	0x3d0f35fc	0.034963593
255	0xbc8950a3	-0.016762083

conv1.convs.<step___semantic___step>.lin_l.bias f4 [32]
0	0xbd0dfe5a	-0.034666397
1	0xbc24c0df	-0.01005575
2	0x3d0f405e	0.034973495
3	0x3d84280f	0.06452953
4	0xbdedad59	-0.11605329
5	0x3b23cd2f	0.0024994125
6	0x3dbf486f	0.093399875
7	0xbc7da6b8	-0.015481643
8	0x3d7c4107	0.061585452
9	0xbd4c4967	-0.04987469
10	0xbddc2760	-0.10749698
11	0x3d6a3aeb	0.057185095
12	0x3e02fcc5	0.12791736
13	0x3da8ea35	0.082477964
14	0x3dd553f4	0.104164034
15	0x3d834a0a	0.06410606
16	0x3da84f7e	0.08218287
17	0x3debd92e	0.11516033
18	0x3d7ce21b	0.06173907
19	0x3dda0a2a	0.1064647
20	0xbe11f800	-0.1425476
21	0x3de19520	0.110147715
22	0xbe2111b5	-0.15729411
23	0xbe0b982e	-0.1363227
24	0x3e2a2279	0.16614713
25	0x3dfa4fa1	0.12222219
26	0x3de55596	0.11197965
27	0xbe0968ab	-0.13418834
28	0x3d89222b	0.0669597
29	0xbda9a2e0	-0.08283019
30	0xbd3cc0df	-0.046082374
31	0xbe357951	-0.1772206

conv1.convs.<step___semantic___step>.lin_r.weight f4 [32, 32]
0	0x3e094adb	0.13407461
1	0x3dc2cb1f	0.095113985
2	0xbdc47f9a	-0.095946506
3	0x3dd686b8	0.10474914
4	0x3e2a8904	0.1665383
5	0xbca5888b	-0.02020671
6	0xbcad6c68	-0.021169856
7	0x3e0cefea	0.13763395
8	0xbdec69a2	-0.11543585
9	0xbdc819fc	-0.09770581
10	0x3d2696d8	0.0406712
11	0xbdafd0e2	-0.08584763
12	0x3bf51596	0.00747938
13	0xbc626506	-0.013818031
14	0xbbe298f9	-0.0069152084
15	0xbd3a96fb	-0.045554142
16	0xbd5d5bd2	-0.054042645
17	0xbd7ea474	-0.062168553
18	0x3d22006f	0.039551195
19	0xbd05a45c	-0.03262745
20	0x3cd35ae9	0.025800185
21	0x3d13eb02	0.036112793
22	0x3dd776a3	0.10520675
23	0xbdb87761	-0.09007145
24	0xbce50990	-0.027958661
25	0xbdeac1db	-0.11462756
26	0xbd3cdb72	-0.046107717
27	0xbd82ecb2	-0.06392802
28	0xbd0f790b	-0.035027545
29	0x3d722636	0.059118472
30	0xbd7e6ad7	-0.06211361
31	0xbd3ab862	-0.045585997
32	0xbd9c9a2f	-0.07646596
33	0xbd962e23	-0.07333019
34	0x3df8c1ea	0.12146361
35	0x3df71dcf	0.120662324
36	0x3c99e005	0.018783579
37	0xbdff7250	-0.12472975
38	0xbd439ecf	-0.047758874
39	0x3d074134	0.033021167
40	0x3e1493bc	0.14509481
41	0xbcb02fe3	-0.02150721
42	0xbde6b266	-0.112644956
43	0xbbddafec	-0.0067653563
44	0x3e146bc7	0.14494239
45	0x3e2ccb45	0.16874416
46	0x3d1ecb62	0.03876818
47	0xbe0b1abe	-0.1358442
48	0xbe107b1e	-0.14109465
49	0xbdb486c8	-0.0881477
50	0x3c8b973a	0.017039884
51	0xbe33454f	-0.17506908
52	0xbe2c8802	-0.16848758
53	0x3db73805	0.08946232
54	0x3cbacd77	0.022803051
55	0xbd93b6a8	-0.07212573
56	0xbccb39f9	-0.024807917
57	0x3ced7a2b	0.028988918
58	0x3d1afd19	0.03783903
59	0xbb7ebb61	-0.003886901
60	0xbe027579	-0.12740125
61	0xbe21eacd	-0.15812226
62	0xbe2698d1	-0.16269232
63	0x3c8a9c87	0.016920341
64	0x3d99b435	0.07505075
65	0x3c439b70	0.011938915
66	0xbe069275	-0.13141806
67	0xbb6ed7cd	-0.0036444545
68	0xbdf77a5d	-0.12083886
69	0x3e0edd0b	0.13951509
70	0xbcf54c18	-0.02994351
71	0x3c9f9239	0.019478904
72	0xbdf41f97	-0.11920088
73	0xbe0b68f4	-0.13614255
74	0x3d52ec2b	0.05149476
75	0xbc864e93	-0.016394889
76	0xbd9cb0ec	-0.07650933
77	0xbc6474bc	-0.013943847
78	0x3d9fc757	0.07801693
79	0xbbf2a245	-0.007404598
80	0xbd02eb49	-0.031962667
81	0x3e082baf	0.13297914
82	0x3cc9ed34	0.02464924
83	0xbc036588	-0.008019812
84	0x3d64d204	0.05586435
85	0x3de9fe95	0.11425511
86	0xbd831859	-0.06401128
87	0x3b89c28f	0.0042041014
88	0xbe00f050	-0.12591672
89	0xbe226234	-0.15857774
90	0xbc671959	-0.014105164
91	0xbe07f0d3	-0.13275461
92	0x3e0dcb85	0.13847168
93	0x3cb964bd	0.022631044
94	0xbe3b09eb	-0.18265502
95	0xbda28d3d	-0.07937095
96	0x3e309503	0.17244343
97	0xbe2a76ec	-0.16646928
98	0xbdede77c	-0.11616418
99	0xbd25ce31	-0.040479843
100	0x3e19559e	0.14974067
101	0xbdaf9cba	-0.08574815
102	0xbd9e4178	-0.07727331
103	0x3de27318	0.11057109
104	0xbdce9046	-0.10086112
105	0x3dea95d8	0.11454362
106	0xbe21be0a	-0.1579515
107	0xbc8fab18	-0.017537639
108	0xbdbac1ee	-0.091190204
109	0xbd9f79b9	-0.07786889
110	0x3e19e253	0.15027742
111	0xbe215b30	-0.15757442
112	0x3ced200c	0.028945945
113	0x3e1c064e	0.1523678
114	0x3d0adbb4	0.03390093
115	0xbde18e4a	-0.110134676
116	0xbe1db6b8	-0.15401733
117	0xbdeafee3	-0.11474397
118	0x3e30d04b	0.17266957
119	0x3d7bc712	0.061469145
120	0xbe186dbd	-0.14885612
121	0x3df23aae	0.118275985
122	0xbe2d9d29	-0.16954483
123	0xbd8fef1d	-0.07028029
124	0x3de5173e	0.11186074
125	0xbdc11806	-0.0942841
126	0xbe271a1f	-0.16318558
127	0xbddf6ff2	-0.10910024
128	0xbd2bf1a5	-0.041978497
129	0x3deb6216	0.11493318
130	0xbd8a686f	-0.067582004
131	0x3e2fb927	0.17160474
132	0x3d3e56c1	0.046469454
133	0x3e18720d	0.14887257
134	0x3b9d5ec6	0.0048025576
135	0xbe09e6d1	-0.13466956
136	0xbcadb198	-0.021202847
137	0x3e1f02f8	0.15528476
138	0xbe08cd34	-0.13359529
139	0xbe278d7c	-0.16362566
140	0x3e13c1bd	0.14429374
141	0x3df9b70f	0.12193119
142	0x3daa91a7	0.08328562
143	0xbdf041d3	-0.11731305
144	0x3e24fba9	0.16111626
145	0x3c845326	0.01615293
146	0x3e32481e	0.17410323
147	0x3e01af3a	0.126645
148	0xbd660a57	-0.056162205
149	0xbe031aca	-0.12803188
150	0x3dc6886b	0.096939884
151	0x3d8f5c89	0.070000716
152	0xbd2a5bbd	-0.041591395
153	0xbdf874b9	-0.12131638
154	0xbdfc4492	-0.12317766
155	0x3d176be5	0.03696813
156	0x3e143a24	0.14475304
157	0xbe237618	-0.15963018
158	0xbda80c6a	-0.08205493
159	0xbe062002	-0.13098148
160	0xbe0dfffd	-0.13867183
161	0x3df7ec7b	0.12105652
162	0x3deb927d	0.1150255
163	0x3dab62f5	0.08368484
164	0x3e1661e5	0.14685781
165	0x3dba6465	0.0910118
166	0xbdcdccd2	-0.10048832
167	0xbd939193	-0.072055005
168	0x3e143ecf	0.14477085
169	0x3cc91c5f	0.024549661
170	0x3df37097	0.11886709
171	0xbdfd314f	-0.123629205
172	0x3e0d9512	0.13826397
173	0x3e0bb9be	0.13645074
174	0x3d82b7f1	0.0638274
175	0x3b113977	0.0022159496
176	0x3e53adff	0.20671843
177	0x3e337add	0.17527337
178	0xbdd03a28	-0.101673424
179	0x3e02f759	0.12789668
180	0xbd691f81	-0.05691481
181	0xbe3152f4	-0.173168
182	0xbe21e42a	-0.15809694
183	0xbdbedf26	-0.09319906
184	0x3dcc93fe	0.09989165
185	0xbe357eaf	-0.17724107
186	0xbe436fda	-0.19085637
187	0xbe1f0f38	-0.15533149
188	0xbe125adb	-0.14292471
189	0xbd5b7523	-0.053578507
190	0xbc02781d	-0.007963208
191	0x3e410e98	0.18853223
192	0x3c44e617	0.012017748
193	0xbdc1e2e4	-0.09467104
194	0xbe2a36d8	-0.16622484
195	0xbe32490b	-0.17410676
196	0xbe1bdeff	-0.15221785
197	0xbc5d2d1a	-0.013499523
198	0xbe1fadbf	-0.15593623
199	0x3cfdefa1	0.030998053
200	0x3d66bef7	0.056334462
201	0xbcfb1095	-0.030647555
202	0xbd391952	-0.045190163
203	0xbc98c10b	-0.018646738
204	0xbd243533	-0.040089797
205	0xbd571285	-0.052507896
206	0x3d32f282	0.043688305
207	0xbcd3f6eb	-0.025874576
208	0xbe239285	-0.15973862
209	0x3c81c335	0.015840152
210	0xbdf57b1f	-0.11986374
211	0x3dfd9788	0.12382418
212	0xbd706977	-0.05869433
213	0xbca11a1d	-0.019665772
214	0xbd5922ca	-0.053011693
215	0xbdab0fbe	-0.08352612
216	0xbd87ce4f	-0.06631147
217	0x3db7f058	0.08981389
218	0x3c8dc3f9	0.017305361
219	0x3de88e37	0.1135525
220	0xbba55957	-0.0050460505
221	0x3cd9c9df	0.026585517
222	0x3d73b0e6	0.059494875
223	0xbdc53ec4	-0.09631112
224	0xbd3d440b	-0.04620747
225	0xbe097074	-0.13421804
226	0xbe2c61e1	-0.16834213
227	0xbdee8c84	-0.11647895
228	0xbc397f01	-0.011321784
229	0xbd1b3e35	-0.037901122
230	0xbcadcd0f	-0.021215944
231	0xbdf7bd3f	-0.12096643
232	0x3de33c9b	0.11095544
233	0x3c6d8ae8	0.01449845
234	0xbe3be4d9	-0.18349017
235	0xbd8de7e8	-0.06928998
236	0x3e18363d	0.1486444
237	0xbb7d6e86	-0.0038670613
238	0x3d93ece3	0.07222917
239	0xbd06fa2c	-0.032953426
240	0xbc3d4a43	-0.01155335
241	0x3d9d41e0	0.0767858
242	0xbdf8e2b8	-0.12152618
243	0x3dd104ac	0.10205969
244	0x3d19dd99	0.037564848
245	0xbdda91d1	-0.106723435
246	0xbe00a57e	-0.1256313
247	0x3d6bf906	0.057610534
248	0x3d8bb9ff	0.06822585
249	0xbe2aa320	-0.1666379
250	0x3d9cb468	0.07651597
251	0x3d5c95da	0.053853847
252	0x3d6aa931	0.05729026
253	0x3d908317	0.070562534
254	0xbcd59a77	-0.026074631
255	0x3d955a66	0.07292633
